…
KB 1.4MB/s 0.6s\u003c0.1s\r\u001b[KDownloading https://ultralytics.com/assets/Arial.ttf to '/root/.config/Ultralytics/Arial.ttf': 100% ━━━━━━━━━━━━ 755.1KB 1.2MB/s 0.6s\n"}
,{"stream_name":"stdout","time":43.530266788,"data":"Overriding model.yaml nc=80 with nc=4\n"}
,{"stream_name":"stdout","time":43.530595203,"data":"\n"}
,{"stream_name":"stdout","time":43.530604148,"data":"                   from  n    params  module                                       arguments                     \n"}
,{"stream_name":"stdout","time":43.565019178,"data":"  0                  -1  1       464  ultralytics.nn.modules.conv.Conv             [3, 16, 3, 2]                 \n"}
,{"stream_name":"stdout","time":43.565569873,"data":"  1                  -1  1      4672  ultralytics.nn.modules.conv.Conv             [16, 32, 3, 2]                \n"}
,{"stream_name":"stdout","time":43.56734707,"data":"  2                  -1  1      6640  ultralytics.nn.modules.block.C3k2            [32, 64, 1, False, 0.25]      \n"}
,{"stream_name":"stdout","time":43.568028421,"data":"  3                  -1  1     36992  ultralytics.nn.modules.conv.Conv             [64, 64, 3, 2]                \n"}
,{"stream_name":"stdout","time":43.569992076,"data":"  4                  -1  1     26080  ultralytics.nn.modules.block.C3k2            [64, 128, 1, False, 0.25]     \n"}
,{"stream_name":"stdout","time":43.571259707,"data":"  5                  -1  1    147712  ultralytics.nn.modules.conv.Conv             [128, 128, 3, 2]              \n"}
,{"stream_name":"stdout","time":43.576202588,"data":"  6                  -1  1     87040  ultralytics.nn.modules.block.C3k2            [128, 128, 1, True]           \n"}
,{"stream_name":"stdout","time":43.578608383,"data":"  7                  -1  1    295424  ultralytics.nn.modules.conv.Conv             [128, 256, 3, 2]              \n"}
,{"stream_name":"stdout","time":43.588015737,"data":"  8                  -1  1    346112  ultralytics.nn.modules.block.C3k2            [256, 256, 1, True]           \n"}
,{"stream_name":"stdout","time":43.589515109,"data":"  9                  -1  1    164608  ultralytics.nn.modules.block.SPPF            [256, 256, 5, 3, True]        \n"}
,{"stream_name":"stdout","time":43.593020751,"data":" 10                  -1  1    249728  ultralytics.nn.modules.block.C2PSA           [256, 256, 1]                 \n"}
,{"stream_name":"stdout","time":43.593315084,"data":" 11                  -1  1         0  torch.nn.modules.upsampling.Upsample         [None, 2, 'nearest']          \n"}
,{"stream_name":"stdout","time":43.593491849,"data":" 12             [-1, 6]  1         0  ultralytics.nn.modules.conv.Concat           [1]                           \n"}
,{"stream_name":"stdout","time":43.598611753,"data":" 13                  -1  1    119808  ultralytics.nn.modules.block.C3k2            [384, 128, 1, True]           \n"}
,{"stream_name":"stdout","time":43.598639762,"data":" 14                  -1  1         0  torch.nn.modules.upsampling.Upsample         [None, 2, 'nearest']          \n"}
,{"stream_name":"stdout","time":43.598820644,"data":" 15             [-1, 4]  1         0  ultralytics.nn.modules.conv.Concat           [1]                           \n"}
,{"stream_name":"stdout","time":43.602559328,"data":" 16                  -1  1     34304  ultralytics.nn.modules.block.C3k2            [256, 64, 1, True]            \n"}
,{"stream_name":"stdout","time":43.603164296,"data":" 17                  -1  1     36992  ultralytics.nn.modules.conv.Conv             [64, 64, 3, 2]                \n"}
,{"stream_name":"stdout","time":43.603785647,"data":" 18            [-1, 13]  1         0  ultralytics.nn.modules.conv.Concat           [1]                           \n"}
,{"stream_name":"stdout","time":43.608163041,"data":" 19                  -1  1     95232  ultralytics.nn.modules.block.C3k2            [192, 128, 1, True]           \n"}
,{"stream_name":"stdout","time":43.609703497,"data":" 20                  -1  1    147712  ultralytics.nn.modules.conv.Conv             [128, 128, 3, 2]              \n"}
,{"stream_name":"stdout","time":43.609739406,"data":" 21            [-1, 10]  1         0  ultralytics.nn.modules.conv.Concat           [1]                           \n"}
,{"stream_name":"stdout","time":43.617933861,"data":" 22                  -1  1    463104  ultralytics.nn.modules.block.C3k2            [384, 256, 1, True, 0.5, True]\n"}
,{"stream_name":"stdout","time":43.646335306,"data":" 23        [16, 19, 22]  1    242736  ultralytics.nn.modules.head.Detect           [4, 1, True, [64, 128, 256]]  \n"}
,{"stream_name":"stdout","time":44.466305524,"data":"YOLO26n summary: 260 layers, 2,505,360 parameters, 2,505,360 gradients, 5.8 GFLOPs\n"}
,{"stream_name":"stdout","time":44.466340192,"data":"\n"}
,{"stream_name":"stdout","time":44.493730169,"data":"Transferred 606/708 items from pretrained weights\n"}
,{"stream_name":"stdout","time":44.572478052,"data":"\u001b[34m\u001b[1mAMP: \u001b[0mrunning Automatic Mixed Precision (AMP) checks...\n"}
…
