…
,{"stream_name":"stdout","time":28.578077836,"data":"\r\u001b[KDownloading https://ultralytics.com/assets/Arial.ttf to '/root/.config/Ultralytics/Arial.ttf': 100% ━━━━━━━━━━━━ 755.1KB 16.9MB/s 0.0s\n"}
,{"stream_name":"stdout","time":28.57847203,"data":"Overriding model.yaml nc=80 with nc=4\n"}
,{"stream_name":"stdout","time":28.578802678,"data":"\n"}
,{"stream_name":"stdout","time":28.578814013,"data":"                   from  n    params  module                                       arguments                     \n"}
,{"stream_name":"stdout","time":28.597302491,"data":"  0                  -1  1       464  ultralytics.nn.modules.conv.Conv             [3, 16, 3, 2]                 \n"}
,{"stream_name":"stdout","time":28.597878635,"data":"  1                  -1  1      4672  ultralytics.nn.modules.conv.Conv             [16, 32, 3, 2]                \n"}
,{"stream_name":"stdout","time":28.599656676,"data":"  2                  -1  1      6640  ultralytics.nn.modules.block.C3k2            [32, 64, 1, False, 0.25]      \n"}
,{"stream_name":"stdout","time":28.600379492,"data":"  3                  -1  1     36992  ultralytics.nn.modules.conv.Conv             [64, 64, 3, 2]                \n"}
,{"stream_name":"stdout","time":28.602397658,"data":"  4                  -1  1     26080  ultralytics.nn.modules.block.C3k2            [64, 128, 1, False, 0.25]     \n"}
,{"stream_name":"stdout","time":28.603678003,"data":"  5                  -1  1    147712  ultralytics.nn.modules.conv.Conv             [128, 128, 3, 2]              \n"}
,{"stream_name":"stdout","time":28.60866338,"data":"  6                  -1  1     87040  ultralytics.nn.modules.block.C3k2            [128, 128, 1, True]           \n"}
,{"stream_name":"stdout","time":28.611672647,"data":"  7                  -1  1    295424  ultralytics.nn.modules.conv.Conv             [128, 256, 3, 2]              \n"}
,{"stream_name":"stdout","time":28.62089372,"data":"  8                  -1  1    346112  ultralytics.nn.modules.block.C3k2            [256, 256, 1, True]           \n"}
,{"stream_name":"stdout","time":28.622436662,"data":"  9                  -1  1    164608  ultralytics.nn.modules.block.SPPF            [256, 256, 5, 3, True]        \n"}
,{"stream_name":"stdout","time":28.625547468,"data":" 10                  -1  1    249728  ultralytics.nn.modules.block.C2PSA           [256, 256, 1]                 \n"}
,{"stream_name":"stdout","time":28.625812048,"data":" 11                  -1  1         0  torch.nn.modules.upsampling.Upsample         [None, 2, 'nearest']          \n"}
,{"stream_name":"stdout","time":28.625915038,"data":" 12             [-1, 6]  1         0  ultralytics.nn.modules.conv.Concat           [1]                           \n"}
,{"stream_name":"stdout","time":28.631057316,"data":" 13                  -1  1    119808  ultralytics.nn.modules.block.C3k2            [384, 128, 1, True]           \n"}
,{"stream_name":"stdout","time":28.631297486,"data":" 14                  -1  1         0  torch.nn.modules.upsampling.Upsample         [None, 2, 'nearest']          \n"}
,{"stream_name":"stdout","time":28.631393472,"data":" 15             [-1, 4]  1         0  ultralytics.nn.modules.conv.Concat           [1]                           \n"}
,{"stream_name":"stdout","time":28.635167652,"data":" 16                  -1  1     34304  ultralytics.nn.modules.block.C3k2            [256, 64, 1, True]            \n"}
,{"stream_name":"stdout","time":28.635820325,"data":" 17                  -1  1     36992  ultralytics.nn.modules.conv.Conv             [64, 64, 3, 2]                \n"}
,{"stream_name":"stdout","time":28.635946883,"data":" 18            [-1, 13]  1         0  ultralytics.nn.modules.conv.Concat           [1]                           \n"}
,{"stream_name":"stdout","time":28.64081803,"data":" 19                  -1  1     95232  ultralytics.nn.modules.block.C3k2            [192, 128, 1, True]           \n"}
,{"stream_name":"stdout","time":28.642310526,"data":" 20                  -1  1    147712  ultralytics.nn.modules.conv.Conv             [128, 128, 3, 2]              \n"}
,{"stream_name":"stdout","time":28.642420678,"data":" 21            [-1, 10]  1         0  ultralytics.nn.modules.conv.Concat           [1]                           \n"}
,{"stream_name":"stdout","time":28.650756244,"data":" 22                  -1  1    463104  ultralytics.nn.modules.block.C3k2            [384, 256, 1, True, 0.5, True]\n"}
,{"stream_name":"stdout","time":28.671741491,"data":" 23        [16, 19, 22]  1    242736  ultralytics.nn.modules.head.Detect           [4, 1, True, [64, 128, 256]]  \n"}
,{"stream_name":"stdout","time":29.306427246,"data":"YOLO26n summary: 260 layers, 2,505,360 parameters, 2,505,360 gradients, 5.8 GFLOPs\n"}
,{"stream_name":"stdout","time":29.30647837,"data":"\n"}
,{"stream_name":"stdout","time":29.333577262,"data":"Transferred 606/708 items from pretrained weights\n"}
,{"stream_name":"stdout","time":29.389419858,"data":"\u001b[34m\u001b[1mAMP: \u001b[0mrunning Automatic Mixed Precision (AMP) checks...\n"}
…
