…
,{"stream_name":"stdout","time":27.624189035,"data":"\r\u001b[KDownloading https://ultralytics.com/assets/Arial.ttf to '/root/.config/Ultralytics/Arial.ttf': 100% ━━━━━━━━━━━━ 755.1KB 43.0MB/s 0.0s\n"}
,{"stream_name":"stdout","time":27.624624388,"data":"Overriding model.yaml nc=80 with nc=3\n"}
,{"stream_name":"stdout","time":27.624912091,"data":"\n"}
,{"stream_name":"stdout","time":27.624924494,"data":"                   from  n    params  module                                       arguments                     \n"}
,{"stream_name":"stdout","time":27.6397798,"data":"  0                  -1  1       464  ultralytics.nn.modules.conv.Conv             [3, 16, 3, 2]                 \n"}
,{"stream_name":"stdout","time":27.640292847,"data":"  1                  -1  1      4672  ultralytics.nn.modules.conv.Conv             [16, 32, 3, 2]                \n"}
,{"stream_name":"stdout","time":27.642044525,"data":"  2                  -1  1      6640  ultralytics.nn.modules.block.C3k2            [32, 64, 1, False, 0.25]      \n"}
,{"stream_name":"stdout","time":27.642752525,"data":"  3                  -1  1     36992  ultralytics.nn.modules.conv.Conv             [64, 64, 3, 2]                \n"}
,{"stream_name":"stdout","time":27.644884794,"data":"  4                  -1  1     26080  ultralytics.nn.modules.block.C3k2            [64, 128, 1, False, 0.25]     \n"}
,{"stream_name":"stdout","time":27.646065001,"data":"  5                  -1  1    147712  ultralytics.nn.modules.conv.Conv             [128, 128, 3, 2]              \n"}
,{"stream_name":"stdout","time":27.651089429,"data":"  6                  -1  1     87040  ultralytics.nn.modules.block.C3k2            [128, 128, 1, True]           \n"}
,{"stream_name":"stdout","time":27.653521507,"data":"  7                  -1  1    295424  ultralytics.nn.modules.conv.Conv             [128, 256, 3, 2]              \n"}
,{"stream_name":"stdout","time":27.66295245,"data":"  8                  -1  1    346112  ultralytics.nn.modules.block.C3k2            [256, 256, 1, True]           \n"}
,{"stream_name":"stdout","time":27.664514639,"data":"  9                  -1  1    164608  ultralytics.nn.modules.block.SPPF            [256, 256, 5, 3, True]        \n"}
,{"stream_name":"stdout","time":27.667861007,"data":" 10                  -1  1    249728  ultralytics.nn.modules.block.C2PSA           [256, 256, 1]                 \n"}
,{"stream_name":"stdout","time":27.668158826,"data":" 11                  -1  1         0  torch.nn.modules.upsampling.Upsample         [None, 2, 'nearest']          \n"}
,{"stream_name":"stdout","time":27.668335319,"data":" 12             [-1, 6]  1         0  ultralytics.nn.modules.conv.Concat           [1]                           \n"}
,{"stream_name":"stdout","time":27.67359161,"data":" 13                  -1  1    119808  ultralytics.nn.modules.block.C3k2            [384, 128, 1, True]           \n"}
,{"stream_name":"stdout","time":27.673809798,"data":" 14                  -1  1         0  torch.nn.modules.upsampling.Upsample         [None, 2, 'nearest']          \n"}
,{"stream_name":"stdout","time":27.673943815,"data":" 15             [-1, 4]  1         0  ultralytics.nn.modules.conv.Concat           [1]                           \n"}
,{"stream_name":"stdout","time":27.677550857,"data":" 16                  -1  1     34304  ultralytics.nn.modules.block.C3k2            [256, 64, 1, True]            \n"}
,{"stream_name":"stdout","time":27.678275178,"data":" 17                  -1  1     36992  ultralytics.nn.modules.conv.Conv             [64, 64, 3, 2]                \n"}
,{"stream_name":"stdout","time":27.678467007,"data":" 18            [-1, 13]  1         0  ultralytics.nn.modules.conv.Concat           [1]                           \n"}
,{"stream_name":"stdout","time":27.683600126,"data":" 19                  -1  1     95232  ultralytics.nn.modules.block.C3k2            [192, 128, 1, True]           \n"}
,{"stream_name":"stdout","time":27.685145601,"data":" 20                  -1  1    147712  ultralytics.nn.modules.conv.Conv             [128, 128, 3, 2]              \n"}
,{"stream_name":"stdout","time":27.685314887,"data":" 21            [-1, 10]  1         0  ultralytics.nn.modules.conv.Concat           [1]                           \n"}
,{"stream_name":"stdout","time":27.695344322,"data":" 22                  -1  1    463104  ultralytics.nn.modules.block.C3k2            [384, 256, 1, True, 0.5, True]\n"}
,{"stream_name":"stdout","time":27.915894617,"data":" 23        [16, 19, 22]  1    242346  ultralytics.nn.modules.head.Detect           [3, 1, True, [64, 128, 256]]  \n"}
,{"stream_name":"stdout","time":28.27888199,"data":"YOLO26n summary: 260 layers, 2,504,970 parameters, 2,504,970 gradients, 5.8 GFLOPs\n"}
,{"stream_name":"stdout","time":28.278941142,"data":"\n"}
,{"stream_name":"stdout","time":28.306178164,"data":"Transferred 606/708 items from pretrained weights\n"}
,{"stream_name":"stdout","time":28.583086628,"data":"\u001b[34m\u001b[1mAMP: \u001b[0mrunning Automatic Mixed Precision (AMP) checks...\n"}
…
